…
top-level classifier on our dataset.Freeze the Base Model#Freeze the base modelbase_model.trainable = False#base model architecture#noticed that the trainable parameters here was 0 because we set trainable = false, basically freeze the modelbase_model.summary()Model: \"resnet50\"__________________________________________________________________________________________________ Layer (type) Output Shape Param # Connected to ================================================================================================== input_1 (InputLayer) [(None, 224, 224, 3 0 [] )] conv1_pad (ZeroPadding2D) (None, 230, 230, 3) 0 ['input_1[0][0]'] conv1_conv (Conv2D) (None, 112, 112, 64 9472 ['conv1_pad[0][0]'] ) conv1_bn (BatchNormalization) (None, 112, 112, 64 256 ['conv1_conv[0][0]'] ) conv1_relu (Activation) (None, 112, 112, 64 0 ['conv1_bn[0][0]'] ) pool1_pad (ZeroPadding2D) (None, 114, 114, 64 0 ['conv1_relu[0][0]'] ) pool1_pool (MaxPooling2D) (None, 56, 56, 64) 0 ['pool1_pad[0][0]'] conv2_block1_1_conv (Conv2D) (None, 56, 56, 64) 4160 ['pool1_pool[0][0]'] conv2_block1_1_bn (BatchNormal (None, 56, 56, 64) 256 ['conv2_block1_1_conv[0][0]'] ization) conv2_block1_1_relu (Activatio (None, 56, 56, 64) 0 ['conv2_block1_1_bn[0][0]'] n) conv2_block1_2_conv (Conv2D) (None, 56, 56, 64) 36928 ['conv2_block1_1_relu[0][0]'] conv2_block1_2_bn (BatchNormal (None, 56, 56, 64) 256 ['conv2_block1_2_conv[0][0]'] ization) conv2_block1_2_relu (Activatio (None, 56, 56, 64) 0 ['conv2_block1_2_bn[0][0]'] n) conv2_block1_0_conv (Conv2D) (None, 56, 56, 256) 16640 ['pool1_pool[0][0]'] conv2_block1_3_conv (Conv2D) (None, 56, 56, 256) 16640 ['conv2_block1_2_relu[0][0]'] conv2_block1_0_bn (BatchNormal (None, 56, 56, 256) 1024 ['conv2_block1_0_conv[0][0]'] ization) conv2_block1_3_bn (BatchNormal (None, 56, 56, 256) 1024 ['conv2_block1_3_conv[0][0]'] ization) conv2_block1_add (Add) (None, 56, 56, 256) 0 ['conv2_block1_0_bn[0][0]', 'conv2_block1_3_bn[0][0]'] conv2_block1_out (Activation) (None, 56, 56, 256) 0 ['conv2_block1_add[0][0]'] conv2_block2_1_conv (Conv2D) (None, 56, 56, 64) 16448 ['conv2_block1_out[0][0]'] conv2_block2_1_bn (BatchNormal (None, 56, 56, 64) 256 ['conv2_block2_1_conv[0][0]'] ization) conv2_block2_1_relu (Activatio (None, 56, 56, 64) 0 ['conv2_block2_1_bn[0][0]'] n) conv2_block2_2_conv (Conv2D) (None, 56, 56, 64) 36928 ['conv2_block2_1_relu[0][0]'] conv2_block2_2_bn (BatchNormal (None, 56, 56, 64) 256 ['conv2_block2_2_conv[0][0]'] ization) conv2_block2_2_relu (Activatio (None, 56, 56, 64) 0 ['conv2_block2_2_bn[0][0]'] n) conv2_block2_3_conv (Conv2D) (None, 56, 56, 256) 16640 ['conv2_block2_2_relu[0][0]'] conv2_block2_3_bn (BatchNormal (None, 56, 56, 256) 1024 ['conv2_block2_3_conv[0][0]'] ization) conv2_block2_add (Add) (None, 56, 56, 256) 0 ['conv2_block1_out[0][0]', 'conv2_block2_3_bn[0][0]'] conv2_block2_out (Activation) (None, 56, 56, 256) 0 ['conv2_block2_add[0][0]'] conv2_block3_1_conv (Conv2D) (None, 56, 56, 64) 16448 ['conv2_block2_out[0][0]'] conv2_block3_1_bn (BatchNormal (None, 56, 56, 64) 256 ['conv2_block3_1_conv[0][0]'] ization) conv2_block3_1_relu (Activatio (None, 56, 56, 64) 0 ['conv2_block3_1_bn[0][0]'] n) conv2_block3_2_conv (Conv2D) (None, 56, 56, 64) 36928 ['conv2_block3_1_relu[0][0]'] conv2_block3_2_bn (BatchNormal (None, 56, 56, 64) 256 ['conv2_block3_2_conv[0][0]'] ization) conv2_block3_2_relu (Activatio (None, 56, 56, 64) 0 ['conv2_block3_2_bn[0][0]'] n) conv2_block3_3_conv (Conv2D) (None, 56, 56, 256) 16640 ['conv2_block3_2_relu[0][0]'] conv2_block3_3_bn (BatchNormal (None, 56, 56, 256) 1024 ['conv2_block3_3_conv[0][0]'] ization) conv2_block3_add (Add) (None, 56, 56, 256) 0 ['conv2_block2_out[0][0]', 'conv2_block3_3_bn[0][0]'] conv2_block3_out (Activation) (None, 56, 56, 256) 0 ['conv2_block3_add[0][0]'] conv3_block1_1_conv (Conv2D) (None, 28, 28, 128) 32896 ['conv2_block3_out[0][0]'] conv3_block1_1_bn (BatchNormal (None, 28, 28, 128) 512 ['conv3_block1_1_conv[0][0]'] ization) conv3_block1_1_relu (Activatio (None, 28, 28, 128) 0 ['conv3_block1_1_bn[0][0]'] n) conv3_block1_2_conv (Conv2D) (None, 28, 28, 128) 147584 ['conv3_block1_1_relu[0][0]'] conv3_block1_2_bn (BatchNormal (None, 28, 28, 128) 512 ['conv3_block1_2_conv[0][0]'] ization) conv3_block1_2_relu (Activatio (None, 28, 28, 128) 0 ['conv3_block1_2_bn[0][0]'] n) conv3_block1_0_conv (Conv2D) (None, 28, 28, 512) 131584 ['conv2_block3_out[0][0]'] conv3_block1_3_conv (Conv2D) (None, 28, 28, 512) 66048 ['conv3_block1_2_relu[0][0]'] conv3_block1_0_bn (BatchNormal (None, 28, 28, 512) 2048 ['conv3_block1_0_conv[0][0]'] ization) conv3_block1_3_bn (BatchNormal (None, 28, 28, 512) 2048 ['conv3_block1_3_conv[0][0]'] ization) conv3_block1_add (Add) (None, 28, 28, 512) 0 ['conv3_block1_0_bn[0][0]', 'conv3_block1_3_bn[0][0]'] conv3_block1_out (Activation) (None, 28, 28, 512) 0 ['conv3_block1_add[0][0]'] conv3_block2_1_conv (Conv2D) (None, 28, 28, 128) 65664 ['conv3_block1_out[0][0]'] conv3_block2_1_bn (BatchNormal (None, 28, 28, 128) 512 ['conv3_block2_1_conv[0][0]'] ization) conv3_block2_1_relu (Activatio (None, 28, 28, 128) 0 ['conv3_block2_1_bn[0][0]'] n) conv3_block2_2_conv (Conv2D) (None, 28, 28, 128) 147584 ['conv3_block2_1_relu[0][0]'] conv3_block2_2_bn (BatchNormal (None, 28, 28, 128) 512 ['conv3_block2_2_conv[0][0]'] ization) conv3_block2_2_relu (Activatio (None, 28, 28, 128) 0 ['conv3_block2_2_bn[0][0]'] n) conv3_block2_3_conv (Conv2D) (None, 28, 28, 512) 66048 ['conv3_block2_2_relu[0][0]'] conv3_block2_3_bn (BatchNormal (None, 28, 28, 512) 2048 ['conv3_block2_3_conv[0][0]'] ization) conv3_block2_add (Add) (None, 28, 28, 512) 0 ['conv3_block1_out[0][0]', 'conv3_block2_3_bn[0][0]'] conv3_block2_out (Activation) (None, 28, 28, 512) 0 ['conv3_block2_add[0][0]'] conv3_block3_1_conv (Conv2D) (None, 28, 28, 128) 65664 ['conv3_block2_out[0][0]'] conv3_block3_1_bn (BatchNormal (None, 28, 28, 128) 512 ['conv3_block3_1_conv[0][0]'] ization) conv3_block3_1_relu (Activatio (None, 28, 28, 128) 0 ['conv3_block3_1_bn[0][0]'] n) conv3_block3_2_conv (Conv2D) (None, 28, 28, 128) 147584 ['conv3_block3_1_relu[0][0]'] conv3_block3_2_bn (BatchNormal (None, 28, 28, 128) 512 ['conv3_block3_2_conv[0][0]'] ization) conv3_block3_2_relu (Activatio (None, 28, 28, 128) 0 ['conv3_block3_2_bn[0][0]'] n) conv3_block3_3_conv (Conv2D) (None, 28, 28, 512) 66048 ['conv3_block3_2_relu[0][0]'] conv3_block3_3_bn (BatchNormal (None, 28, 28, 512) 2048 ['conv3_block3_3_conv[0][0]'] ization) conv3_block3_add (Add) (None, 28, 28, 512) 0 ['conv3_block2_out[0][0]', 'conv3_block3_3_bn[0][0]'] conv3_block3_out (Activation) (None, 28, 28, 512) 0 ['conv3_block3_add[0][0]'] conv3_block4_1_conv (Conv2D) (None, 28, 28, 128) 65664 ['conv3_block3_out[0][0]'] conv3_block4_1_bn (BatchNormal (None, 28, 28, 128) 512 ['conv3_block4_1_conv[0][0]'] ization) conv3_block4_1_relu (Activatio (None, 28, 28, 128) 0 ['conv3_block4_1_bn[0][0]'] n) conv3_block4_2_conv (Conv2D) (None, 28, 28, 128) 147584 ['conv3_block4_1_relu[0][0]'] conv3_block4_2_bn (BatchNormal (None, 28, 28, 128) 512 ['conv3_block4_2_conv[0][0]'] ization) conv3_block4_2_relu (Activatio (None, 28, 28, 128) 0 ['conv3_block4_2_bn[0][0]'] n) conv3_block4_3_conv (Conv2D) (None, 28, 28, 512) 66048 ['conv3_block4_2_relu[0][0]'] conv3_block4_3_bn (BatchNormal (None, 28, 28, 512) 2048 ['conv3_block4_3_conv[0][0]'] ization) conv3_block4_add (Add) (None, 28, 28, 512) 0 ['conv3_block3_out[0][0]', 'conv3_block4_3_bn[0][0]'] conv3_block4_out (Activation) (None, 28, 28, 512) 0 ['conv3_block4_add[0][0]'] conv4_block1_1_conv (Conv2D) (None, 14, 14, 256) 131328 ['conv3_block4_out[0][0]'] conv4_block1_1_bn (BatchNormal (None, 14, 14, 256) 1024 ['conv4_block1_1_conv[0][0]'] ization) conv4_block1_1_relu (Activatio (None, 14, 14, 256) 0 ['conv4_block1_1_bn[0][0]'] n) conv4_block1_2_conv (Conv2D) (None, 14, 14, 256) 590080 ['conv4_block1_1_relu[0][0]'] conv4_block1_2_bn (BatchNormal (None, 14, 14, 256) 1024 ['conv4_block1_2_conv[0][0]'] ization) conv4_block1_2_relu (Activatio (None, 14, 14, 256) 0 ['conv4_block1_2_bn[0][0]'] n) conv4_block1_0_conv (Conv2D) (None, 14, 14, 1024 525312 ['conv3_block4_out[0][0]'] ) conv4_block1_3_conv (Conv2D) (None, 14, 14, 1024 263168 ['conv4_block1_2_relu[0][0]'] ) conv4_block1_0_bn (BatchNormal (None, 14, 14, 1024 4096 ['conv4_block1_0_conv[0][0]'] ization) ) conv4_block1_3_bn (BatchNormal (None, 14, 14, 1024 4096 ['conv4_block1_3_conv[0][0]'] ization) ) conv4_block1_add (Add) (None, 14, 14, 1024 0 ['conv4_block1_0_bn[0][0]', ) 'conv4_block1_3_bn[0][0]'] conv4_block1_out (Activation) (None, 14, 14, 1024 0 ['conv4_block1_add[0][0]'] ) conv4_block2_1_conv (Conv2D) (None, 14, 14, 256) 262400 ['conv4_block1_out[0][0]'] conv4_block2_1_bn (BatchNormal (None, 14, 14, 256) 1024 ['conv4_block2_1_conv[0][0]'] ization) conv4_block2_1_relu (Activatio (None, 14, 14, 256) 0 ['conv4_block2_1_bn[0][0]'] n) conv4_block2_2_conv (Conv2D) (None, 14, 14, 256) 590080 ['conv4_block2_1_relu[0][0]'] conv4_block2_2_bn (BatchNormal (None, 14, 14, 256) 1024 ['conv4_block2_2_conv[0][0]'] ization) conv4_block2_2_relu (Activatio (None, 14, 14, 256) 0 ['conv4_block2_2_bn[0][0]'] n) conv4_block2_3_conv (Conv2D) (None, 14, 14, 1024 263168 ['conv4_block2_2_relu[0][0]'] ) conv4_block2_3_bn (BatchNormal (None, 14, 14, 1024 4096 ['conv4_block2_3_conv[0][0]'] ization) ) conv4_block2_add (Add) (None, 14, 14, 1024 0 ['conv4_block1_out[0][0]', ) 'conv4_block2_3_bn[0][0]'] conv4_block2_out (Activation) (None, 14, 14, 1024 0 ['conv4_block2_add[0][0]'] ) conv4_block3_1_conv (Conv2D) (None, 14, 14, 256) 262400 ['conv4_block2_out[0][0]'] conv4_block3_1_bn (BatchNormal (None, 14, 14, 256) 1024 ['conv4_block3_1_conv[0][0]'] ization) conv4_block3_1_relu (Activatio (None, 14, 14, 256) 0 ['conv4_block3_1_bn[0][0]'] n) conv4_block3_2_conv (Conv2D) (None, 14, 14, 256) 590080 ['conv4_block3_1_relu[0][0]'] conv4_block3_2_bn (BatchNormal (None, 14, 14, 256) 1024 ['conv4_block3_2_conv[0][0]'] ization) conv4_block3_2_relu (Activatio (None, 14, 14, 256) 0 ['conv4_block3_2_bn[0][0]'] n) conv4_block3_3_conv (Conv2D) (None, 14, 14, 1024 263168 ['conv4_block3_2_relu[0][0]'] ) conv4_block3_3_bn (BatchNormal (None, 14, 14, 1024 4096 ['conv4_block3_3_conv[0][0]'] ization) ) conv4_block3_add (Add) (None, 14, 14, 1024 0 ['conv4_block2_out[0][0]', ) 'conv4_block3_3_bn[0][0]'] conv4_block3_out (Activation) (None, 14, 14, 1024 0 ['conv4_block3_add[0][0]'] ) conv4_block4_1_conv (Conv2D) (None, 14, 14, 256) 262400 ['conv4_block3_out[0][0]'] conv4_block4_1_bn (BatchNormal (None, 14, 14, 256) 1024 ['conv4_block4_1_conv[0][0]'] ization) conv4_block4_1_relu (Activatio (None, 14, 14, 256) 0 ['conv4_block4_1_bn[0][0]'] n) conv4_block4_2_conv (Conv2D) (None, 14, 14, 256) 590080 ['conv4_block4_1_relu[0][0]'] conv4_block4_2_bn (BatchNormal (None, 14, 14, 256) 1024 ['conv4_block4_2_conv[0][0]'] ization) conv4_block4_2_relu (Activatio (None, 14, 14, 256) 0 ['conv4_block4_2_bn[0][0]'] n) conv4_block4_3_conv (Conv2D) (None, 14, 14, 1024 263168 ['conv4_block4_2_relu[0][0]'] ) conv4_block4_3_bn (BatchNormal (None, 14, 14, 1024 4096 ['conv4_block4_3_conv[0][0]'] ization) ) conv4_block4_add (Add) (None, 14, 14, 1024 0 ['conv4_block3_out[0][0]', ) 'conv4_block4_3_bn[0][0]'] conv4_block4_out (Activation) (None, 14, 14, 1024 0 ['conv4_block4_add[0][0]'] ) conv4_block5_1_conv (Conv2D) (None, 14, 14, 256) 262400 ['conv4_block4_out[0][0]'] conv4_block5_1_bn (BatchNormal (None, 14, 14, 256) 1024 ['conv4_block5_1_conv[0][0]'] ization) conv4_block5_1_relu (Activatio (None, 14, 14, 256) 0 ['conv4_block5_1_bn[0][0]'] n) conv4_block5_2_conv (Conv2D) (None, 14, 14, 256) 590080 ['conv4_block5_1_relu[0][0]'] conv4_block5_2_bn (BatchNormal (None, 14, 14, 256) 1024 ['conv4_block5_2_conv[0][0]'] ization) conv4_block5_2_relu (Activatio (None, 14, 14, 256) 0 ['conv4_block5_2_bn[0][0]'] n) conv4_block5_3_conv (Conv2D) (None, 14, 14, 1024 263168 ['conv4_block5_2_relu[0][0]'] ) conv4_block5_3_bn (BatchNormal (None, 14, 14, 1024 4096 ['conv4_block5_3_conv[0][0]'] ization) ) conv4_block5_add (Add) (None, 14, 14, 1024 0 ['conv4_block4_out[0][0]', ) 'conv4_block5_3_bn[0][0]'] conv4_block5_out (Activation) (None, 14, 14, 1024 0 ['conv4_block5_add[0][0]'] ) conv4_block6_1_conv (Conv2D) (None, 14, 14, 256) 262400 ['conv4_block5_out[0][0]'] conv4_block6_1_bn (BatchNormal (None, 14, 14, 256) 1024 ['conv4_block6_1_conv[0][0]'] ization) conv4_block6_1_relu (Activatio (None, 14, 14, 256) 0 ['conv4_block6_1_bn[0][0]'] n) conv4_block6_2_conv (Conv2D) (None, 14, 14, 256) 590080 ['conv4_block6_1_relu[0][0]'] conv4_block6_2_bn (BatchNormal (None, 14, 14, 256) 1024 ['conv4_block6_2_conv[0][0]'] ization) conv4_block6_2_relu (Activatio (None, 14, 14, 256) 0 ['conv4_block6_2_bn[0][0]'] n) conv4_block6_3_conv (Conv2D) (None, 14, 14, 1024 263168 ['conv4_block6_2_relu[0][0]'] ) conv4_block6_3_bn (BatchNormal (None, 14, 14, 1024 4096 ['conv4_block6_3_conv[0][0]'] ization) ) conv4_block6_add (Add) (None, 14, 14, 1024 0 ['conv4_block5_out[0][0]', ) 'conv4_block6_3_bn[0][0]'] conv4_block6_out (Activation) (None, 14, 14, 1024 0 ['conv4_block6_add[0][0]'] ) conv5_block1_1_conv (Conv2D) (None, 7, 7, 512) 524800 ['conv4_block6_out[0][0]'] conv5_block1_1_bn (BatchNormal (None, 7, 7, 512) 2048 ['conv5_block1_1_conv[0][0]'] ization) conv5_block1_1_relu (Activatio (None, 7, 7, 512) 0 ['conv5_block1_1_bn[0][0]'] n) conv5_block1_2_conv (Conv2D) (None, 7, 7, 512) 2359808 ['conv5_block1_1_relu[0][0]'] conv5_block1_2_bn (BatchNormal (None, 7, 7, 512) 2048 ['conv5_block1_2_conv[0][0]'] ization) conv5_block1_2_relu (Activatio (None, 7, 7, 512) 0 ['conv5_block1_2_bn[0][0]'] n) conv5_block1_0_conv (Conv2D) (None, 7, 7, 2048) 2099200 ['conv4_block6_out[0][0]'] conv5_block1_3_conv (Conv2D) (None, 7, 7, 2048) 1050624 ['conv5_block1_2_relu[0][0]'] conv5_block1_0_bn (BatchNormal (None, 7, 7, 2048) 8192 ['conv5_block1_0_conv[0][0]'] ization) conv5_block1_3_bn (BatchNormal (None, 7, 7, 2048) 8192 ['conv5_block1_3_conv[0][0]'] ization) conv5_block1_add (Add) (None, 7, 7, 2048) 0 ['conv5_block1_0_bn[0][0]', 'conv5_block1_3_bn[0][0]'] conv5_block1_out (Activation) (None, 7, 7, 2048) 0 ['conv5_block1_add[0][0]'] conv5_block2_1_conv (Conv2D) (None, 7, 7, 512) 1049088 ['conv5_block1_out[0][0]'] conv5_block2_1_bn (BatchNormal (None, 7, 7, 512) 2048 ['conv5_block2_1_conv[0][0]'] ization) conv5_block2_1_relu (Activatio (None, 7, 7, 512) 0 ['conv5_block2_1_bn[0][0]'] n) conv5_block2_2_conv (Conv2D) (None, 7, 7, 512) 2359808 ['conv5_block2_1_relu[0][0]'] conv5_block2_2_bn (BatchNormal (None, 7, 7, 512) 2048 ['conv5_block2_2_conv[0][0]'] ization) conv5_block2_2_relu (Activatio (None, 7, 7, 512) 0 ['conv5_block2_2_bn[0][0]'] n) conv5_block2_3_conv (Conv2D) (None, 7, 7, 2048) 1050624 ['conv5_block2_2_relu[0][0]'] conv5_block2_3_bn (BatchNormal (None, 7, 7, 2048) 8192 ['conv5_block2_3_conv[0][0]'] ization) conv5_block2_add (Add) (None, 7, 7, 2048) 0 ['conv5_block1_out[0][0]', 'conv5_block2_3_bn[0][0]'] conv5_block2_out (Activation) (None, 7, 7, 2048) 0 ['conv5_block2_add[0][0]'] conv5_block3_1_conv (Conv2D) (None, 7, 7, 512) 1049088 ['conv5_block2_out[0][0]'] conv5_block3_1_bn (BatchNormal (None, 7, 7, 512) 2048 ['conv5_block3_1_conv[0][0]'] ization) conv5_block3_1_relu (Activatio (None, 7, 7, 512) 0 ['conv5_block3_1_bn[0][0]'] n) conv5_block3_2_conv (Conv2D) (None, 7, 7, 512) 2359808 ['conv5_block3_1_relu[0][0]'] conv5_block3_2_bn (BatchNormal (None, 7, 7, 512) 2048 ['conv5_block3_2_conv[0][0]'] ization) conv5_block3_2_relu (Activatio (None, 7, 7, 512) 0 ['conv5_block3_2_bn[0][0]'] n) conv5_block3_3_conv (Conv2D) (None, 7, 7, 2048) 1050624 ['conv5_block3_2_relu[0][0]'] conv5_block3_3_bn (BatchNormal (None, 7, 7, 2048) 8192 ['conv5_block3_3_conv[0][0]'] ization) conv5_block3_add (Add) (None, 7, 7, 2048) 0 ['conv5_block2_out[0][0]', 'conv5_block3_3_bn[0][0]'] conv5_block3_out (Activation) (None, 7, 7, 2048) 0 ['conv5_block3_add[0][0]'] ==================================================================================================Total params: 23,587,712Trainable params: 0Non-trainable params: 23,587,712__________________________________________________________________________________________________Add classification layerIn order to perform the prediction task, the 772048 blocks of features has to
…
because we are dealing with two classes classification, with from_logits=True, because the output of the model is linear.#compile the modelbase_learning_rate = 0.0001model.compile(optimizer=tf.keras.optimizers.Adam(learning_rate=base_learning_rate), loss=tf.keras.losses.BinaryCrossentropy(from_logits=True), metrics=['accuracy'])model.summary()Model: \"model\"_________________________________________________________________ Layer (type) Output Shape Param # ================================================================= input_2 (InputLayer) [(None, 224, 224, 3)] 0 tf.__operators__.getitem (S (None, 224, 224, 3) 0 licingOpLambda) tf.nn.bias_add (TFOpLambda) (None, 224, 224, 3) 0 resnet50 (Functional) (None, 7, 7, 2048) 23587712 global_average_pooling2d (G (None, 2048) 0 lobalAveragePooling2D) dropout (Dropout) (None, 2048) 0 dense (Dense) (None, 1) 2049 =================================================================Total params: 23,589,761Trainable params: 2,049Non-trainable params: 23,587,712_________________________________________________________________Train the ModelThe model will reach approximately 90% accuracy on validation dataset after 30 epoches.The model’s train loss is 0.2691 and train accuracy is 0.9122. For the validation loss i
…
test dataset is correct#plt.figure(figsize=(10, 10))#count = 1#for i in range(40):# ax = plt.subplot(4, 10, count)# plt.imshow(test_image[i].astype(\"uint8\"))# plt.title(class_names[test_label[i]])# plt.axis(\"off\")# count+=1More ResultsResults with data augmentationModel ArchitectureThe model with data augmentaion contains a sequential layer.# Model: \"model\"_________________________________________________________________ Layer (type) Output Shape Param # ================================================================= input_2 (InputLayer) [(None, 224, 224, 3)] 0 sequential (Sequential) (None, 224, 224, 3) 0 tf.__operators__.getitem (S (None, 224, 224, 3) 0 licingOpLambda) tf.nn.bias_add (TFOpLambda) (None, 224, 224, 3) 0 resnet50 (Functional) (None, 7, 7, 2048) 23587712 global_average_pooling2d (G (None, 2048) 0 lobalAveragePooling2D) dropout (Dropout) (None, 2048) 0 dense (Dense) (None, 1) 2049 =================================================================Total params: 23,589,761Trainable params: 19,454,977Non-trainable params: 4,134,784This is formatted as codeLearning Curve for feature extractionAfter 30 epoches of feature extraction training,loss: 0.4212 - accuracy: 0.8176 - val_loss: 0.3520 - val_accuracy: 0.8906Learning Curve for fine-tuningAfter 10 epoches of fine-tuning, the modelloss: 0.0854 - accuracy: 0.9595 - val_loss: 0.0624 - val_accuracy: 0.9844Wrong predictionConfusion MatrixResults with data augmentaion, without preprocessingModel ArchitectureThe model with data augmentation contains sequential layer, without preprocessing layers (slicing, TF)Model: \"model_1\"_________________________________________________________________ Layer (type) Output Shape Param # ================================================================= input_3 (InputLayer) [(None, 224, 224, 3)] 0 sequential (Sequential) (None, 224, 224, 3) 0 resnet50 (Functional) (None, 7, 7, 2048) 23587712 global_average_pooling2d (G (None, 2048) 0 lobalAveragePooling2D) dropout_1 (Dropout) (None, 2048) 0 dense (Dense) (None, 1) 2049 =================================================================Total params: 23,589,761Trainable params: 19,454,977Non-trainable params: 4,134,784# This is formatted as codeLearning Curve for feature extractionThe model after training for feature extraction:loss: 0.4927 - accuracy: 0.7365 - val_loss: 0.4773 - val_accuracy: 0.8125Learning Curve for fine-tuningThe model performance after fine-tun
…
